mnist_model_quant(int8).tflite (tflite, 24352 bytes, 2 tensors)

sequential_6/dense_6/MatMul i1 [10, 2028] scale=0.008213273 zero_point=0
00000000: f8f8 01fb 1602 0a04 fbfc fffe ffee f6f9
00000010: ea03 01fd fbfd ee05 f0e6 eb00 e302 0bee
00000020: fef3 e6f3 faf9 ec00 ef04 09f6 fbe5 e5fa
00000030: edf0 01ed 0403 0de4 06eb faf0 ddf1 f7f4
00000040: fff7 10f1 09f4 ecea ddef f5e9 f403 0af0
00000050: 01f6 eaeb e1f0 f0f0 f603 14ed 09f4 eef3
00000060: efe9 f4fb effc 13f1 09f5 f9fe f0fb f0d0
00000070: e9fc 07f1 06f1 f8d5 feeb f5ed f7fc 0af7
00000080: 02f0 f9e7 fdf9 f706 f701 01f9 06fc 02f9
00000090: fef7 faf2 fbfa 0302 07ff f2fe fcfc ff00
000000a0: f8fe 0901 0100 fef8 f8ea f7f9 defa 0bf8
000000b0: 06f5 ddf6 f9f0 eafa eef9 0cdf 00dc fbe6
000000c0: fdf8 edf2 fafe 04f1 03f7 fbf2 fa05 fcde
000000d0: fcf2 03f4 0a03 fae4 f3fc 00ed fbf9 fbf7
000000e0: 0f05 ffec eafb 09ef 0cfc f608 f501 fbfd
000000f0: eefc f0ee 030a 0104 0101 00fe 0204 01e0
-0.065706186 -0.065706186 0.008213273 -0.041066367 0.18069202 0.016426546 0.082132734 0.032853093
-0.041066367 -0.032853093 -0.008213273 -0.016426546 -0.008213273 -0.14783892 -0.082132734 -0.05749291
-0.18069202 0.024639819 0.008213273 -0.024639819 -0.041066367 -0.024639819 -0.14783892 0.041066367
-0.13141237 -0.2135451 -0.17247874 0.0 -0.23818493 0.016426546 0.09034601 -0.14783892
-0.016426546 -0.10677255 -0.2135451 -0.10677255 -0.049279638 -0.05749291 -0.16426547 0.0
-0.13962564 0.032853093 0.07391946 -0.082132734 -0.041066367 -0.22175838 -0.22175838 -0.049279638
-0.15605219 -0.13141237 0.008213273 -0.15605219 0.032853093 0.024639819 0.10677255 -0.22997165
0.049279638 -0.17247874 -0.049279638 -0.13141237 -0.28746456 -0.1231991 -0.07391946 -0.098559275
-0.008213273 -0.07391946 0.13141237 -0.1231991 0.07391946 -0.098559275 -0.16426547 -0.18069202
-0.28746456 -0.13962564 -0.09034601 -0.18890528 -0.098559275 0.024639819 0.082132734 -0.13141237
0.008213273 -0.082132734 -0.18069202 -0.17247874 -0.25461146 -0.13141237 -0.13141237 -0.13141237
-0.082132734 0.024639819 0.16426547 -0.15605219 0.07391946 -0.098559275 -0.14783892 -0.10677255
-0.13962564 -0.18890528 -0.098559275 -0.041066367 -0.13962564 -0.032853093 0.15605219 -0.1231991
0.07391946 -0.09034601 -0.05749291 -0.016426546 -0.13141237 -0.041066367 -0.13141237 -0.3942371
-0.18890528 -0.032853093 0.05749291 -0.1231991 0.049279638 -0.1231991 -0.065706186 -0.35317075
-0.016426546 -0.17247874 -0.09034601 -0.15605219 -0.07391946 -0.032853093 0.082132734 -0.07391946
0.016426546 -0.13141237 -0.05749291 -0.20533183 -0.024639819 -0.05749291 -0.07391946 0.049279638
-0.07391946 0.008213273 0.008213273 -0.05749291 0.049279638 -0.032853093 0.016426546 -0.05749291
-0.016426546 -0.07391946 -0.049279638 -0.11498582 -0.041066367 -0.049279638 0.024639819 0.016426546
0.05749291 -0.008213273 -0.11498582 -0.016426546 -0.032853093 -0.032853093 -0.008213273 0.0
-0.065706186 -0.016426546 0.07391946 0.008213273 0.008213273 0.0 -0.016426546 -0.065706186
-0.065706186 -0.18069202 -0.07391946 -0.05749291 -0.27925128 -0.049279638 0.09034601 -0.065706186
0.049279638 -0.09034601 -0.28746456 -0.082132734 -0.05749291 -0.13141237 -0.18069202 -0.049279638
-0.14783892 -0.05749291 0.098559275 -0.27103803 0.0 -0.29567784 -0.041066367 -0.2135451
-0.024639819 -0.065706186 -0.15605219 -0.11498582 -0.049279638 -0.016426546 0.032853093 -0.1231991
0.024639819 -0.07391946 -0.041066367 -0.11498582 -0.049279638 0.041066367 -0.032853093 -0.27925128
-0.032853093 -0.11498582 0.024639819 -0.098559275 0.082132734 0.024639819 -0.049279638 -0.22997165
-0.10677255 -0.032853093 0.0 -0.15605219 -0.041066367 -0.05749291 -0.041066367 -0.07391946
0.1231991 0.041066367 -0.008213273 -0.16426547 -0.18069202 -0.041066367 0.07391946 -0.13962564
0.098559275 -0.032853093 -0.082132734 0.065706186 -0.09034601 0.008213273 -0.041066367 -0.024639819
-0.14783892 -0.032853093 -0.13141237 -0.14783892 0.024639819 0.082132734 0.008213273 0.032853093
0.008213273 0.008213273 0.0 -0.016426546 0.016426546 0.032853093 0.008213273 -0.26282474

sequential_6/conv2d_6/Conv2D i1 [12, 3, 3, 1]
00000000: 3ac7 813d 761e bf0f 1e61 0018 2259 0fc8
00000010: cf7f 227f 9bee 7881 e176 3132 5dde 4e14
00000020: 8f12 9e81 b58e 81f7 ddef 6b7a 42be 2546
00000030: a30a 4481 ca0f 2a4e 60c6 0014 81a9 a824
00000040: 0181 530e 9c41 3fe2 2016 2a25 2619 9ab5
00000050: 81c7 7f3a 1d12 b569 4ad0 6934 81d8 393f
00000060: 9a47 5544 3fc2 3ffa 8104 c1e1
58 -57 -127 61 118 30 -65 15
30 97 0 24 34 89 15 -56
-49 127 34 127 -101 -18 120 -127
-31 118 49 50 93 -34 78 20
-113 18 -98 -127 -75 -114 -127 -9
-35 -17 107 122 66 -66 37 70
-93 10 68 -127 -54 15 42 78
96 -58 0 20 -127 -87 -88 36
1 -127 83 14 -100 65 63 -30
32 22 42 37 38 25 -102 -75
-127 -57 127 58 29 18 -75 105
74 -48 105 52 -127 -40 57 63
-102 71 85 68 63 -62 63 -6
-127 4 -63 -31
